cora_multi_exp/models/eduqgc_N25_F25_seed42.pt (torch, 4763 bytes, 9 tensors)

enc_W f4 [2, 2, 25]
000000 4e a7 3f 3f 51 70 9a be 51 48 2c bf 4b bd 74 bf
       0.7486466 -0.30163816 -0.67297846 -0.9560134
000010 3b 31 14 bf 6d da d9 3e 85 d8 79 3c 19 d8 55 be
       -0.5788762 0.42549458 0.015249376 -0.20883216
000020 34 27 0d 3f 61 c3 26 3d a2 4e 3a 3d ae a4 69 bd
       0.55137944 0.04071367 0.045485146 -0.057041816
000030 80 d5 fe 3e b3 89 d8 3e ac ba 96 3e 81 2c 07 3d
       0.49772263 0.42292556 0.29439294 0.033001427
000040 7e e5 ed 3d 9d 6e 32 be 68 4f dc bd db a5 8d 3e
       0.11616038 -0.17425008 -0.10757333 0.276656
000050 67 be 01 be e5 f0 e6 be af 91 59 be 2a c1 82 3e
       -0.12670289 -0.45105663 -0.2124698 0.25537997
000060 9e 9b 8f be 97 b1 ce be 5a 77 06 bb d2 9e 58 3f
       -0.28048414 -0.40369865 -0.0020517916 0.8461734
000070 7e 4d 5b 3f e4 e7 85 be 10 5e af 3c 1f 4b d1 be
       0.8566512 -0.2615348 0.021407157 -0.40877625
000080 aa f7 87 3e fe f0 79 3e 38 a9 d9 be 8c a7 29 bf
       0.2655614 0.24408337 -0.42511916 -0.6627128
000090 c0 10 e0 3d 82 0c c2 3e 69 0b 12 be 85 78 83 bd
       0.10940695 0.37900168 -0.14262165 -0.06419472
0000a0 81 23 08 bf 26 36 58 3e 2b 74 ba 3d 86 a3 4f 3f
       -0.53179175 0.21114406 0.091041885 0.8110889
0000b0 66 f9 a5 3d b5 8c 9a 3e 40 cc 16 3f 8d 85 8a 3c
       0.081042096 0.30185476 0.5890541 0.016909385
0000c0 87 ca 88 bc 67 26 09 bf 42 a3 27 3f ea bc 03 3f
       -0.016698135 -0.5357422 0.65483487 0.51460135
0000d0 96 f5 89 be 9d 22 93 bf de af 19 bf e4 09 d9 bd
       -0.2694518 -1.1494938 -0.6003398 -0.105975896
0000e0 78 b7 1d bf 73 8d 66 be cd d9 a2 3e 38 87 6c 3e
       -0.61608076 -0.22514896 0.31806794 0.23098457
0000f0 58 85 75 3e 6b 05 9b bd 97 31 96 3e 60 ac a7 bd
       0.23976648 -0.07569393 0.2933471 -0.08187175
000100 91 55 c9 3e f5 c7 47 3e f6 4a 6f 3e aa 24 62 3e
       0.39323094 0.19509871 0.23368439 0.22084299
000110 3e c8 3e be ed 3b 13 3d 21 41 08 3f 5d 9b 3f bd
       -0.18631074 0.03594582 0.5322438 -0.046779025
000120 d6 4e ba 3e ae 2e a8 3e f9 cd 74 be d9 b9 02 bf
       0.36388272 0.32848114 -0.23906697 -0.5106483
000130 c0 bd 6f be 65 69 26 3f b1 77 6d 3f 08 6f 83 bd
       -0.23412228 0.6500457 0.9276076 -0.06417662
000140 3a b8 e5 3c ff 55 3a be f7 4e 91 3e 6e 90 04 3f
       0.028041948 -0.18196867 0.28380558 0.5178288
000150 d0 46 1b bf dc 09 3b bf b3 d2 7a 3e 4e 39 c0 3d
       -0.60654926 -0.7306192 0.24494438 0.0938593
000160 71 61 f6 be e1 d6 7c bc ca 5d 12 bf 32 b8 e7 3d
       -0.48121217 -0.0154320905 -0.5717436 0.11314429
000170 60 4e 77 3e c2 9d e3 3e e5 05 c3 3c eb db 03 3e
       0.24150991 0.44456297 0.023806522 0.12876861
000180 b1 4d ee 3e fe 22 8d bd 79 e0 9b 3d 98 f7 3c bf
       0.4654365 -0.0689144 0.07611174 -0.738153

enc_b f4 [2, 2]
000000 be 17 3c be b6 68 40 3f 85 99 ac be c7 0d bc 3e
       -0.18368432 0.75159776 -0.33710876 0.3672926

edge_phase f4 [2]
000000 13 43 87 3c 4c e2 af bd
       0.016511476 -0.085880846

pre_theta f4 [2]
000000 23 40 4d be 61 17 6c be
       -0.20043997 -0.23055793

pre_psi f4 [2]
000000 f7 6c d2 3d 94 90 00 3e
       0.1027469 0.12555152

post_theta f4 [2]
000000 60 2f d0 be 69 83 74 be
       -0.40661144 -0.23878254

post_psi f4 [2]
000000 f2 a9 c4 3d 35 75 82 3e
       0.09602727 0.25480047

readout.weight f4 [3, 26]
000000 3e dc a3 3f c6 07 8e 3f 94 9a 4f 3e 8a fa 92 bf
       1.2801588 1.1096122 0.2027381 -1.1482708
000010 eb b6 b9 bf 03 80 8c bf cc 9a 0a 3f 2f 3d 76 be
       -1.4508947 -1.0976566 0.5414245 -0.24046777
000020 3d e9 b4 3e 27 ba bc bd f0 fc 8b 3e 47 7a c5 3e
       0.35334197 -0.09215193 0.27341413 0.38569853
000030 76 05 43 3d af 4f a5 3e 05 b4 2d 3f 9c b1 25 be
       0.04761263 0.32287356 0.67852813 -0.16181034
000040 f8 e6 50 3e 52 e0 0f 3e d0 4a ae 3e bc 91 7f bc
       0.20400608 0.14050415 0.34041452 -0.015598711
000050 ac 3e 9b 3b b7 4d 99 3e ab cc fd be c4 86 fc bd
       0.0047376957 0.29942104 -0.49570212 -0.12330392
000060 8d 2f 44 3e 33 4a 80 3d 4f f8 70 bf 44 77 a8 3f
       0.19158764 0.062641524 -0.9412889 1.3161397
000070 40 14 38 be 8d 9a 5a 3f db c4 aa 3f a5 55 92 3f
       -0.17976475 0.85392076 1.3341326 1.1432387
000080 27 ed 38 be 42 51 77 be a1 92 e9 be 8d d5 08 bc
       -0.18059216 -0.24152091 -0.4561968 -0.008351696
000090 8f c7 23 bf c0 0b 23 bf a6 e3 76 3e 78 d5 a2 3e
       -0.6397638 -0.63689804 0.24110278 0.3180349
0000a0 44 66 65 be c8 1c 74 bf d1 ea bf be 3b 33 39 be
       -0.22402292 -0.95356417 -0.37483838 -0.18085949
0000b0 a6 d1 f7 be 82 49 f2 be 8f 9c 44 3e 52 24 0c 3e
       -0.48402137 -0.47321707 0.19200347 0.1368573
0000c0 fc a4 c3 3e 04 46 cc 3e f7 4e 9b 3d e7 bd a3 be
       0.3821181 0.39897168 0.07583421 -0.31980821
0000d0 f4 5b 02 bf 48 9f ed bf 22 e5 9d bd 27 e0 ba 3e
       -0.5092156 -1.8564234 -0.07709719 0.3649914
0000e0 4b 83 21 3f b7 d1 3c bf fc df 62 be db b3 a8 3e
       0.6309096 -0.737575 -0.22155756 0.3294972
0000f0 d7 47 25 3f 8a 12 43 3e 1e c9 cf 3e 27 f5 10 bd
       0.64562744 0.19050041 0.40583128 -0.035390045
000100 6e 03 bd bd 16 0c d1 be d1 93 26 bf f8 b1 3c 3f
       -0.0922917 -0.40829533 -0.650693 0.7370906
000110 af 4b 5a 3e 6c 36 a4 bd 4f 77 43 3f 4f 94 38 3f
       0.21317933 -0.08018193 0.76353925 0.721013
000120 00 09 08 bf 7f e9 1c be cf a7 71 3e 49 cb ef bd
       -0.5313873 -0.15323447 0.2359917 -0.117086954
000130 cd db 1a be 86 f5 9c 3e
       -0.1512291 0.3065607

readout.bias f4 [3]
000000 6e 35 3a bc 2b e2 e5 be 7e 3c 90 3e
       -0.011365278 -0.44899115 0.28171152
