cora_multi_exp/models/eduqgc_N25_F20_seed42.pt (torch, 4635 bytes, 9 tensors)

enc_W f4 [2, 2, 20]
0	0x3ef2f3bd	0.47451583
1	0xbe192dfb	-0.14958946
2	0xbde5859d	-0.11207125
3	0x3f1df192	0.6169673
4	0xbc313b00	-0.010817289
5	0xbe16df24	-0.14733559
6	0xbe143df7	-0.14476763
7	0x3e3943a6	0.18092212
8	0x3eed29bf	0.46320912
9	0xbea34cea	-0.31894618
10	0xbef36908	-0.4754107
11	0xbda52c93	-0.080651425
12	0x3ebe37b6	0.3715188
13	0xbdbc8e05	-0.092067756
14	0xbeb7ed48	-0.3592322
15	0x3d6d2871	0.057899896
16	0x3e32db9d	0.17466588
17	0xbee63d79	-0.44968775
18	0xbe8a3a89	-0.26997784
19	0xbc8d9a0f	-0.017285375
20	0x3ecb5b86	0.39718264
21	0x3e44f58f	0.19234298
22	0x3e8e1571	0.27750733
23	0xbcf837fa	-0.03030013
24	0x3f5b0830	0.8555937
25	0x3e3e8f53	0.18609361
26	0xbd77d67d	-0.060507286
27	0xbf01c462	-0.5069028
28	0xbe99563d	-0.29948607
29	0xbf04f2c2	-0.5193292
30	0xbdbdb62a	-0.09263261
31	0xbdd24018	-0.10266131
32	0xbe2f2210	-0.17102838
33	0x3e9da75c	0.30791748
34	0xbed4b059	-0.41540793
35	0xbf7fba87	-0.99893993
36	0xbe00fcb4	-0.12596399
37	0x3d9ad83e	0.07560776
38	0x3da4b464	0.08042219
39	0xbee67efc	-0.45018756
40	0x3f4298a1	0.76014143
41	0xbe1b2067	-0.1514908
42	0xbe149614	-0.14510375
43	0x3f41881a	0.755983
44	0x3f016e87	0.50559276
45	0x3dc89b78	0.09795278
46	0xbd8f719a	-0.0700409
47	0x3eeb0a14	0.45906126
48	0x3e8c4590	0.27396822
49	0xbb87b48f	-0.0041413973
50	0xbf0cd5e6	-0.55013883
51	0x3e5eb3ce	0.21748278
52	0xbc5d63bd	-0.013512549
53	0x3c4611ff	0.012089252
54	0xbee31cb4	-0.44357836
55	0xbd9e3136	-0.0772423
56	0x3ec3a091	0.3820844
57	0xbd93cd80	-0.072169304
58	0xbe803cbd	-0.2504634
59	0xbe19c832	-0.15017775
60	0x3dfbc8e1	0.12294174
61	0xbdb1b506	-0.086771056
62	0x3e97253d	0.29520598
63	0x3e67acbf	0.22624491
64	0x3ef0fb31	0.47066644
65	0x3e54d797	0.20785366
66	0x3cd346d8	0.025790617
67	0xbe88e711	-0.2673879
68	0xbf8bfbd6	-1.0936229
69	0xbe5ce4c3	-0.2157164
70	0xbed032be	-0.40663713
71	0xbeae7d93	-0.3408018
72	0x3ea64cbd	0.32480422
73	0x3dd9129d	0.10599253
74	0x3e8af57f	0.27140424
75	0xbf2fafc3	-0.68627566
76	0xbe520f11	-0.2051356
77	0xbd7bc740	-0.061469316
78	0x3fb58577	1.4181355
79	0xbe88199d	-0.2658204

enc_b f4 [2, 2]
0	0x3c48a92f	0.012247368
1	0x3dc16672	0.09443368
2	0x3dbc80cf	0.09204256
3	0x3ea24518	0.3169334

edge_phase f4 [2]
0	0x3ce95d71	0.02848694
1	0x3de1e781	0.11030484

pre_theta f4 [2]
0	0x3e7481ff	0.23877715
1	0x3e37a836	0.17935261

pre_psi f4 [2]
0	0xbd4638ad	-0.048393894
1	0xbe661726	-0.22469768

post_theta f4 [2]
0	0x3e4e07fc	0.20120233
1	0x3d257068	0.040390402

post_psi f4 [2]
0	0xbe05562a	-0.1302115
1	0xbe31a05b	-0.17346327

readout.weight f4 [3, 21]
0	0xbe4c3f56	-0.19946036
1	0x3f9c3cb5	1.2206026
2	0x3d8ba409	0.068183966
3	0xbfb3671a	-1.4015839
4	0xbfdbce3a	-1.717231
5	0xbf94f4e5	-1.1637236
6	0x3f0eba19	0.5575271
7	0xbe3fd6b6	-0.1873425
8	0x3ee2f7e5	0.44329754
9	0xbc9fabdb	-0.019491127
10	0x3ea514b0	0.32242346
11	0x3ed903dd	0.4238576
12	0xbd18efb2	-0.037337966
13	0x3eb24201	0.34815982
14	0x3f220885	0.6329425
15	0x3dddbede	0.10827421
16	0x3f02172f	0.50816625
17	0x3c89798f	0.016781596
18	0x3f0b9c49	0.5453535
19	0xbe727ad3	-0.23679666
20	0x3e1f384b	0.15548818
21	0xbf99db99	-1.2020141
22	0x3f375e7e	0.7162856
23	0xbea1a217	-0.31568977
24	0x3f6a9f26	0.9164909
25	0x3fba4c3b	1.4554514
26	0x3f8304fa	1.0235894
27	0xbe426bbd	-0.18986411
28	0xbe0c0b9d	-0.13676305
29	0xbeca70eb	-0.39539275
30	0x3d09fa8e	0.033686213
31	0xbf48b761	-0.78404814
32	0xbf247f8c	-0.6425712
33	0x3e2c901b	0.16851847
34	0x3ed95a97	0.42451927
35	0xbe9b5f61	-0.30346206
36	0xbf6e8240	-0.93167496
37	0xbec2a339	-0.38015154
38	0xbe53c8bf	-0.20682047
39	0xbf02f83e	-0.5116004
40	0xbec5613a	-0.3855074
41	0xbd8db900	-0.069200516
42	0x3f8d1163	1.1020931
43	0xbfe2e02d	-1.7724663
44	0xbca15d39	-0.019697772
45	0x3ed5c35e	0.41750616
46	0x3f88a04f	1.0673922
47	0xbee5b818	-0.44867015
48	0x3dc9338e	0.098242864
49	0x3ebc96ce	0.36833805
50	0x3f24a8df	0.64320177
51	0x3dac5dc9	0.084163256
52	0x3ebf64e4	0.3738166
53	0xbd216bb6	-0.03940936
54	0xbdb61d7e	-0.08892344
55	0xbf076cc9	-0.5290037
56	0xbeabb60c	-0.33537328
57	0x3f28bb9e	0.6591128
58	0x3eae18aa	0.34003192
59	0x3d11d576	0.035603963
60	0x3eddc854	0.433169
61	0x3f5b282b	0.85608166
62	0xbb85f875	-0.0040884563

readout.bias f4 [3]
0	0x3d6dee50	0.0580886
1	0xbec1b2e2	-0.3783179
2	0xbb9fd410	-0.0048775747
