cora_multi_exp/models/eduqgc_N20_F10_seed42.pt (torch, 4315 bytes, 9 tensors)

enc_W f4 [2, 2, 10]
00000000: e41a 1a3f 8afe 1c3e 676d f1be e05f a3bf
00000010: 1c87 efbe 603f 1abc f520 debd b5ad 44be
00000020: ec88 133d 4a66 c33c 567e e3be 36b1 203f
00000030: fd1c 30bd f7a6 7dbf cb95 8bbf 7e1f b83f
00000040: cd92 aa3e 5b38 59bf b611 8a3e be17 783e
00000050: a7bd 183f a1a3 e43e 9ad9 a9be f3f1 28bf
00000060: 7654 71bf 373a 1a3f 2254 9bbe 9964 99be
00000070: ad43 d23e daed 2a3e dd7c 83bf a1da c63d
00000080: 35fc f03e 1bce 3cbe 6ced f6be 0e89 2d3f
00000090: e329 853e 37f6 a7bc 7ad2 21be b32f acbe
0.6019728 0.15331474 -0.4715378 -1.2763634 -0.46782768 -0.009414524 -0.1084613 -0.19206889
0.03601925 0.023852486 -0.44432324 0.627704 -0.042996395 -0.99082893 -1.0905088 1.4384611
0.33315125 -0.84851617 0.26966637 0.24227807 0.59664387 0.4465609 -0.3317383 -0.65994185
-0.942695 0.6024508 -0.30337626 -0.29959562 0.41067258 0.16692296 -1.027248 0.09709669
0.4706742 -0.18437998 -0.48228014 0.67787254 0.2600852 -0.020503147 -0.15802947 -0.33630142

enc_b f4 [2, 2]
00000000: 800f cfbe b580 0d3e c736 9bbe 840b 3fbd
-0.40441513 0.13818629 -0.3031523 -0.04664184

edge_phase f4 [2]
00000000: 61c3 433e 5267 f4bd
0.191175 -0.11933769

pre_theta f4 [2]
00000000: b394 ecbe 0a03 97be
-0.46207199 -0.29494506

pre_psi f4 [2]
00000000: 98cd 21be 4aa7 9d3c
-0.15801084 0.019244809

post_theta f4 [2]
00000000: b7fa aabe e551 1fbe
-0.33394405 -0.15558584

post_psi f4 [2]
00000000: 26a2 e0be eaf6 4c3d
-0.4387371 0.050040163

readout.weight f4 [3, 11]
00000000: 217f 993f d230 543f e287 73bd 5b72 92bf
00000010: 0b73 d0bf b0ca 58bf 0d16 513e e7a2 58be
00000020: 1d5c d83d a02b 8a3c 9a31 013e aa40 4ebf
00000030: 05cd 9f3f c759 14be 2de4 133f 0658 9f3f
00000040: 756e 833f 8f51 303e 3d7c 41be 8a49 d2be
00000050: 9dad afbe 5a95 4ebf 6c72 70bf f0d7 dcbf
00000060: d1cd 6bbc aee3 483e 1018 843e bb31 5fbf
00000070: 76ee d7bd 26da 283e 358e 363e 5b15 093f
00000080: 4c4c 623e
1.1991922 0.82886994 -0.05945576 -1.1441149 -1.6285108 -0.84684277 0.20418568 -0.21155892
0.10564444 0.016866505 0.12616578 -0.8056742 1.2484442 -0.14487372 0.57770044 1.2448738
1.0268084 0.17218612 -0.1889505 -0.4107173 -0.34312144 -0.8069664 -0.93924594 -1.7253399
-0.014392332 0.19618103 0.25799608 -0.8718526 -0.1054353 0.16489467 0.17827685 0.5354821
0.22099417

readout.bias f4 [3]
00000000: a5e0 08be e94f d3be 400e 9ebd
-0.13366945 -0.41271904 -0.07717562
