cora_multi_exp/models/eduqgc_N20_F20_seed42.pt (torch, 4635 bytes, 9 tensors)

enc_W f4 [2, 2, 20]
-0.53592455 0.27249476 -0.40130684 -0.55355334 -0.40716246 0.2577462 0.3125499 -0.15231648
0.27688122 0.27616793 0.13776107 -0.15446945 -0.57865024 0.25046816 -0.12548782 -0.17334725
0.17134224 0.46587744 -0.6069839 -0.12693559 -0.0017873414 -0.374245 0.04841337 0.67612064
1.107505 -0.3049204 0.22619878 -0.2255041 -0.013182267 0.18939464 -0.0134454565 -0.11258438
-0.45093557 -0.21431668 -0.37301406 -0.95189565 -0.44803908 0.074189685 -0.64792633 -0.021636905
-0.7558745 -0.17314427 -0.34636164 0.11124998 -0.24814941 0.76551586 0.6270114 0.008043144
0.34412053 0.29798317 0.25583917 -0.5273751 -0.34079748 0.73242337 0.051812313 -0.3806025
0.09000851 0.6192033 -0.17329088 0.41838396 -0.21199659 -0.342105 -0.1381795 1.1160704
0.6528217 -0.39205945 0.12380907 -0.0867621 -0.33387417 -0.25103438 0.091279365 0.34102383
0.34283274 -0.20290817 -0.10244332 -0.5672224 -0.28550872 -0.17153636 -0.5362469 0.19797577
00000000: 5a32 09bf 6f84 8b3e 1778 cdbe acb5 0dbf
00000010: 9977 d0be 4ff7 833e 8a06 a03e daf8 1bbe
00000020: 60c3 8d3e e265 8d3e 3d11 0d3e 3d2d 1ebe
00000030: 6c22 14bf 5d3d 803e e17f 00be f181 31be
00000040: 5774 2f3e 7d87 ee3e 4c63 1bbf 67fb 01be
00000050: 3a45 eaba 0a9d bfbe 194d 463d 3e16 2d3f
00000060: b9c2 8d3f 871e 9cbe a7a0 673e 8cea 66be
00000070: 6ffa 57bc abf0 413e 554a 5cbc a492 e6bd
00000080: 07e1 e6be d575 5bbe b3fb bebe 6faf 73bf
00000090: 6165 e5be c3f0 973d 80de 25bf e13f b1bc
000000a0: fe80 41bf bb4c 31be 5056 b1be 08d7 e33d
000000b0: e11a 7ebe d9f8 433f d283 203f 64c7 033c
000000c0: 9130 b03e 4091 983e 5afd 823e 0e02 07bf
000000d0: 027d aebe 1980 3b3f 2639 543d 55de c2be
000000e0: 6256 b83d 1c84 1e3f 2a73 31be 6c36 d63e
000000f0: a215 59be 6328 afbe ed7e 0dbe 65db 8e3f
00000100: 531f 273f 04bc c8be 9c8f fd3d 54b0 b1bd
00000110: 8ef1 aabe 9487 80be adf0 ba3d ad9a ae3e
00000120: c687 af3e 29c7 4fbe cecd d1bd 7d35 11bf
00000130: 332e 92be 3aa7 2fbe 7a47 09bf 29ba 4a3e

enc_b f4 [2, 2]
-0.040411316 0.55089045 0.03873677 0.40238404
00000000: 5686 25bd 2807 0d3f 73aa 1e3d 4805 ce3e

edge_phase f4 [2]
0.13573574 0.28449348
00000000: 4ffe 0a3e 21a9 913e

pre_theta f4 [2]
0.15146142 -0.05203916
00000000: b418 1b3e 0427 55bd

pre_psi f4 [2]
-0.2171114 0.22543523
00000000: 7352 5ebe 7ed8 663e

post_theta f4 [2]
0.071623094 -0.3442746
00000000: 21af 923d c344 b0be

post_psi f4 [2]
-0.15678546 -0.18901138
00000000: 5e8c 20be 338c 41be

readout.weight f4 [3, 21]
1.0830227 1.2855606 -0.14170219 -1.157243 -1.650763 -0.77169365 0.26876223 -0.30335677
0.4579773 0.1142297 0.3981509 0.33359244 0.027997434 0.19645168 0.7758501 0.13341773
0.3352174 0.121171266 0.5353181 -0.34941635 0.18349472 -1.0741203 0.9814621 -0.17564322
0.6612556 1.2999456 1.0170835 -0.17197412 -0.13411765 -0.5694222 -0.3121481 -0.46225575
-0.7903973 -0.0931021 0.17836942 -0.36498845 -0.99039555 -0.27462423 -0.65195453 -0.5049849
-0.23693766 -0.5255006 -0.05226824 -1.7765118 0.052578066 0.33541352 0.7807989 -0.3527162
-0.14313272 0.34412917 0.5224899 0.4594589 0.2154534 -0.020440945 -0.059065 -0.48546937
-0.38195336 0.5908439 0.068013996 0.26351693 0.27597713 0.82521546 0.16102308
00000000: 7da0 8a3f 408d a43f 611a 11be 8a20 94bf
00000010: 344c d3bf b78d 45bf 349b 893e 9451 9bbe
00000020: 007c ea3e 43f1 e93d 6fda cb3e a1cc aa3e
00000030: e05a e53c a12a 493e 1d9e 463f a89e 083e
00000040: 9da1 ab3e a428 f83d 9b0a 093f b3e6 b2be
00000050: 0ae6 3b3e c67c 89bf 1a41 7b3f d1db 33be
00000060: 0c48 293f 9e64 a63f cb2f 823f fc19 30be
00000070: 2356 09be a7c5 11bf e0d1 9fbe c9ac ecbe
00000080: 7a57 4abf 50ac bebd 79a6 363e c4df babe
00000090: 908a 7dbf 8c9b 8cbe 7ee6 26bf b146 01bf
000000a0: c99f 72be 3587 06bf 3917 56bd bd64 e3bf
000000b0: 195c 573d 52bb ab3e 70e2 473f 3897 b4be
000000c0: 6291 12be b331 b03e e6c1 053f 323e eb3e
000000d0: d19f 5c3e c573 a7bc 24ee 71bd 718f f8be
000000e0: 648f c3be 8c41 173f ec4a 8b3d b1eb 863e
000000f0: e04c 8d3e 5241 533f 3ce3 243e

readout.bias f4 [3]
0.048350632 -0.25971597 0.31257257
00000000: 500b 463d 7ef9 84be 8309 a03e
