cora_multi_exp/models/eduqgc_N25_F15_seed42.pt (torch, 4443 bytes, 9 tensors)

enc_W f4 [2, 2, 15]
0	0xbf93762a	-1.1520436
1	0xbe2d03b1	-0.1689594
2	0x3ee608d9	0.44928625
3	0x3f458a45	0.7716411
4	0x3be30c10	0.006928928
5	0x3e5497c6	0.20761022
6	0x3edf2c97	0.43588707
7	0x3ea30729	0.318414
8	0x3e24b67c	0.16085237
9	0xbd33c8d9	-0.043892715
10	0xbe7a73a2	-0.24458173
11	0x3e23fce1	0.16014434
12	0xbe91ba49	-0.28462437
13	0xbe93881a	-0.28814775
14	0x3df0cad6	0.11757438
15	0x3e815a51	0.25264218
16	0x3d484fb7	0.048904147
17	0x3ed1d6d4	0.40984213
18	0x3e9855c8	0.29752946
19	0x3e502575	0.20326789
20	0x3eec3ec9	0.4614165
21	0x3ed19c54	0.4093958
22	0xbcc1d36a	-0.02366038
23	0xbf1bafdd	-0.6081522
24	0x3dfe7b8d	0.12425909
25	0xbe5bad32	-0.21452788
26	0x3d3f941c	0.046772107
27	0xbdaffc59	-0.08593053
28	0xbf2199e1	-0.63125426
29	0x3e80220f	0.25025985
30	0xbf771de9	-0.96530014
31	0xbe882af7	-0.2659528
32	0x3f1f426a	0.62210715
33	0x3efa2079	0.488529
34	0x3ddde504	0.10834697
35	0xbed5168c	-0.41618764
36	0xbca145f5	-0.019686678
37	0x3ebcf3e4	0.36904824
38	0x3ed3f753	0.4139963
39	0xbdcad7ed	-0.09904466
40	0xbe7f7300	-0.24946213
41	0xbe83c13e	-0.2573337
42	0x3bce309d	0.0062924162
43	0x3e03ca0d	0.12870045
44	0x3e691d6d	0.22765131
45	0xbf5f5710	-0.8724222
46	0xbd8e41bb	-0.06946131
47	0x3ebd007d	0.36914435
48	0x3e421d6b	0.18956535
49	0xbed06565	-0.40702358
50	0x3da2ef96	0.07955854
51	0x3f25ec53	0.6481373
52	0x3ef64ff1	0.48107865
53	0xbea2bc8f	-0.31784484
54	0x3eba6dd9	0.36411932
55	0xbe0a0b5a	-0.13480893
56	0xbe0d5af5	-0.13804229
57	0xbf1d5c46	-0.61468923
58	0x3e06c244	0.13160044
59	0xbcf7398c	-0.030178808

enc_b f4 [2, 2]
0	0xbdc60efe	-0.09670828
1	0xbdf94606	-0.12171559
2	0xbe51a1e6	-0.20471916
3	0xbcc0b14b	-0.02352204

edge_phase f4 [2]
0	0x3dfa1713	0.12211432
1	0x3d367934	0.044549182

pre_theta f4 [2]
0	0xbea45760	-0.32097912
1	0xbea1f334	-0.31630862

pre_psi f4 [2]
0	0xbddc1bd6	-0.10747497
1	0xbe4525dd	-0.19252725

post_theta f4 [2]
0	0xbe13d4a3	-0.14436583
1	0xbe4e6595	-0.20155938

post_psi f4 [2]
0	0x3d71f426	0.05907073
1	0xbed7a063	-0.42114553

readout.weight f4 [3, 16]
0	0xbf4b896c	-0.79506564
1	0x3f6a1dfd	0.9145201
2	0x3daafde2	0.083492056
3	0xbf73716b	-0.9509494
4	0xbfba21bb	-1.4541544
5	0xbf967118	-1.1753263
6	0x3e43d5b7	0.19124494
7	0x3bfa209c	0.007633282
8	0x3e137903	0.14401631
9	0x3dd1dcb2	0.102471724
10	0x3e1da203	0.15393834
11	0x3eadd426	0.3395092
12	0xbde21ed7	-0.110410385
13	0x3e934565	0.2876388
14	0x3f16c17f	0.58889
15	0x3e274fbf	0.16339014
16	0x3dee7a40	0.11644411
17	0x3f8713cd	1.0552918
18	0xbe29e3de	-0.1659083
19	0x3f8b847e	1.0899808
20	0x3fdf1158	1.7427168
21	0x3fa15a1e	1.2605627
22	0xbe8f4669	-0.27983406
23	0xbc4e982a	-0.012609521
24	0xbf1de716	-0.61680734
25	0xbd58c19a	-0.052919008
26	0xbf466485	-0.7749713
27	0xbf47ff03	-0.7812349
28	0xbd6c51c8	-0.05769518
29	0x3ecf59b0	0.40498114
30	0xbf078936	-0.5294374
31	0xbf87036d	-1.054792
32	0x3f8388f4	1.027617
33	0xbfd999ed	-1.70001
34	0x3cd4dbce	0.025983717
35	0x3e91511f	0.28382203
36	0x3f0428d4	0.516248
37	0xbf59d076	-0.8508371
38	0xbe1685b7	-0.14699446
39	0x3e922128	0.2854092
40	0x3e97eea2	0.2967425
41	0x3bd4df66	0.0064963577
42	0x3ed4a901	0.4153519
43	0xbcdfa38d	-0.027299667
44	0xbe56493e	-0.20926377
45	0xbeaa9626	-0.3331768
46	0xbe8fc604	-0.2808076
47	0x3f69b282	0.91288006

readout.bias f4 [3]
0	0xbe651288	-0.2237035
1	0xbed56d0f	-0.41684768
2	0x3c8aa2da	0.016923357
