cora_multi_exp/models/eduqgc_N20_F25_seed42.pt (torch, 4763 bytes, 9 tensors)

enc_W f4 [2, 2, 25]
0	0x3f5db7e6	0.8660873
1	0xbcc520b9	-0.024063455
2	0xbf342dc6	-0.70382345
3	0xbb4d6127	-0.0031338425
4	0xbe1d6594	-0.1537078
5	0x3bb50928	0.005524773
6	0xbdc2a9bb	-0.0950503
7	0x3dd82b74	0.10555163
8	0xbf21ad40	-0.63154984
9	0xbe2e9903	-0.17050557
10	0x3ec6c76f	0.3882403
11	0x3d47f3b0	0.048816383
12	0xbd92c0c3	-0.07165673
13	0x3eeca375	0.46218458
14	0xbe9224f1	-0.2854381
15	0xbea4cc7f	-0.32187268
16	0x3e19775a	0.14986935
17	0x3da0c73e	0.078505024
18	0xbe8bcac8	-0.27303147
19	0x3f03971a	0.5140244
20	0xbdcad932	-0.09904708
21	0xbd22a967	-0.039712336
22	0x3eee1dd1	0.46507123
23	0xbf1a8c14	-0.6036999
24	0x3e947e91	0.29002813
25	0xbf4514e3	-0.76984996
26	0xbbb56801	-0.00553608
27	0x3e7b1f9b	0.24523775
28	0x3e089996	0.13339838
29	0x3e1a2f65	0.15057142
30	0xbe7b75ec	-0.24556702
31	0x3ed84f07	0.42247793
32	0x3e45837f	0.19288443
33	0x3d181003	0.037124645
34	0x3e39cd65	0.18144758
35	0xbdc94168	-0.098269284
36	0xbe19a312	-0.15003613
37	0xbf61ef53	-0.88255805
38	0x3edb601f	0.42846772
39	0xbf5aad15	-0.8542035
40	0xbf3d2f55	-0.7390035
41	0xbe504dfa	-0.20342246
42	0xbe37ad58	-0.17937219
43	0xbed7bc8f	-0.42136046
44	0xbe043d7a	-0.12914076
45	0x3d3f489d	0.04670011
46	0xbf07a70e	-0.5298928
47	0xbe33d32d	-0.17561026
48	0xbf074b84	-0.528496
49	0x3e649aa4	0.22324616
50	0x3efb1874	0.49042094
51	0x3d8942d5	0.067022
52	0xbef910a2	-0.48645502
53	0xbea9b6f5	-0.33147398
54	0x3e98ecb2	0.29868084
55	0xbf47c15c	-0.7802942
56	0xbea5a41d	-0.3235177
57	0x3db5e990	0.08882439
58	0xbe924dc9	-0.2857497
59	0x3e9b2d53	0.30308017
60	0x3f08a157	0.53371185
61	0xbebf2804	-0.37335217
62	0xbf11ac69	-0.569037
63	0x3ecedf69	0.40404823
64	0xbf22aabf	-0.6354179
65	0xbf360bbb	-0.7111165
66	0x3cb91b19	0.022595929
67	0xbef31f19	-0.47484663
68	0xbef959cc	-0.48701322
69	0x3ec046b2	0.37553936
70	0xbee9b041	-0.45642284
71	0xbe236bd2	-0.15959099
72	0x3e8f4d0b	0.27988467
73	0xbebe3c9a	-0.3715561
74	0xbe1bf737	-0.15231024
75	0xbf63f4be	-0.8904532
76	0xbe202fde	-0.1564326
77	0xbec300cc	-0.38086545
78	0x3df5f31a	0.120092586
79	0xbebf2848	-0.3733542
80	0x3d35ce26	0.04438605
81	0x3f1711b5	0.59011394
82	0x3e9775ad	0.29581967
83	0xbd6ef64a	-0.05834035
84	0xbe3135cf	-0.17305683
85	0x3db1e1b2	0.08685626
86	0xbd8e686a	-0.06953509
87	0xbf60b633	-0.87778014
88	0xbe558391	-0.2085097
89	0xbec1a008	-0.37817407
90	0xbe832964	-0.25617516
91	0x3e0c2b91	0.13688494
92	0x3e9f3dea	0.31101924
93	0xbcf08ed5	-0.029364983
94	0xbc05c60c	-0.008164894
95	0xbd44ca13	-0.048044275
96	0xbc871be5	-0.016492793
97	0x3e114fd0	0.14190602
98	0xbf0ae46d	-0.542548
99	0x3d8c64d5	0.0685517

enc_b f4 [2, 2]
0	0xbe9c9aae	-0.3058676
1	0x3ec49fa8	0.38403058
2	0xbe806c92	-0.25082833
3	0x3e10ef1f	0.14153717

edge_phase f4 [2]
0	0xbccf7295	-0.025323192
1	0xbab19a10	-0.0013549943

pre_theta f4 [2]
0	0xbe76fca8	-0.24119818
1	0xbe30927f	-0.17243384

pre_psi f4 [2]
0	0xbe8c8536	-0.27445382
1	0xbb75e945	-0.0037523073

post_theta f4 [2]
0	0xbdacadb9	-0.084315725
1	0xbd88b5ff	-0.06675338

post_psi f4 [2]
0	0xbe48cc9c	-0.19609302
1	0xbe08fc6a	-0.13377538

readout.weight f4 [3, 26]
0	0x3f7f1bd7	0.99651855
1	0x3f6a005f	0.91406816
2	0xbe102a38	-0.14078605
3	0xbf845723	-1.0339092
4	0xbfed4c1a	-1.8538849
5	0xbf832caa	-1.0248005
6	0x3e9f81a9	0.3115361
7	0xbe31cd56	-0.17363486
8	0x3efc48d4	0.49274313
9	0x3d2747f5	0.040840108
10	0x3eb985e8	0.36234975
11	0x3e911fda	0.28344613
12	0xbe0fe9fe	-0.14054105
13	0x3e209e10	0.15685296
14	0x3f6ddebb	0.92917985
15	0x3eacd8a3	0.3375903
16	0x3f024a28	0.50894403
17	0x3ea2ed27	0.31821558
18	0x3eccb014	0.39978087
19	0xbe449bcb	-0.19200055
20	0xbd88d647	-0.06681495
21	0x3e70ae92	0.23504093
22	0xbf49624e	-0.78665626
23	0x3e59e1f9	0.21277608
24	0x3e8a28fc	0.26984394
25	0xbe450d4c	-0.19243354
26	0x3ea4fa43	0.32222185
27	0x3f6e5a3f	0.93106455
28	0xbebce662	-0.36894518
29	0x3f3b02c6	0.73051107
30	0x3fc5cce6	1.5453155
31	0x3f9a8de2	1.2074549
32	0xbecfdc07	-0.40597555
33	0xbdb9dc79	-0.09075255
34	0xbf1fb221	-0.6238118
35	0xbee62f05	-0.44957748
36	0xbf1245fd	-0.57138044
37	0xbf47b8d2	-0.7801639
38	0xbd050ad5	-0.032481033
39	0x3eb3195a	0.3498028
40	0xbecaa5ac	-0.39579523
41	0xbf82cf3f	-1.0219496
42	0xbebd4364	-0.36965477
43	0xbf59f599	-0.8514038
44	0xbf547dff	-0.83004755
45	0xbf1eda0a	-0.6205145
46	0x3d8a5a51	0.06755508
47	0x3d6ec874	0.058296636
48	0x3ecf109a	0.40442353
49	0xbde7846b	-0.113045536
50	0xbf153b9c	-0.5829408
51	0xbedcd177	-0.4312856
52	0xbfb69519	-1.4264251
53	0xbfb228fb	-1.3918756
54	0x3e346140	0.17615223
55	0x3e696867	0.22793733
56	0x3f21c48e	0.63190544
57	0xbedb7ea5	-0.4287006
58	0xbdb408c9	-0.08790738
59	0x3ea85188	0.32874703
60	0x3eba4cf9	0.3638685
61	0x3e1eef82	0.15521052
62	0x3dcaaa4d	0.098957635
63	0x3d1f9fb4	0.038970664
64	0xbe042a6e	-0.1290681
65	0xbf02f979	-0.51161915
66	0xbe9d2fec	-0.30700624
67	0x3f13b25b	0.57694024
68	0x3e005efa	0.1253623
69	0x3de82778	0.11335653
70	0x3f0259b3	0.5091812
71	0x3f078d15	0.5294965
72	0x3dd2957e	0.102824196
73	0xbb32d0dc	-0.0027285134
74	0x3e23b223	0.15985923
75	0x3d46afb1	0.048507396
76	0x3d774db3	0.060376834
77	0x3e76272d	0.24038382

readout.bias f4 [3]
0	0x3ea07b74	0.31344187
1	0xbe497526	-0.19673595
2	0x3e4fe3b1	0.20301701
