cora_multi_exp/models/eduqgc_N20_F15_seed42.pt (torch, 4443 bytes, 9 tensors)

enc_W f4 [2, 2, 15]
000000 ed 2d c1 be 9e f9 87 be d4 0f 9d 3e 0c ee 52 3f
       -0.3773035 -0.2655763 0.30676138 0.8239448
000010 4c 60 41 3f 10 af b3 be 72 9c 4e 3e e8 57 84 3c
       0.7553756 -0.350945 0.20176867 0.016155198
000020 a5 78 f0 be 9c c2 bb bd 31 b9 cc bc 06 e9 98 3e
       -0.46967044 -0.09167978 -0.02499065 0.29865283
000030 3d 3c a2 3c ce 43 d5 be 59 be ac bc 85 00 26 bf
       0.019804114 -0.41653293 -0.021086859 -0.6484454
000040 22 8f 1b bd a3 0f 59 3f 00 f5 6d 3f f7 0f 63 be
       -0.0379783 0.84789485 0.92951965 -0.22174059
000050 b5 f3 ef 3e 3b ef 69 3e 09 d1 9a 3d fc e1 d5 3e
       0.4686562 0.22845165 0.075594015 0.41773975
000060 7f dc c0 be 0b de 26 bf 96 17 90 3d dd a1 04 be
       -0.37668225 -0.6518256 0.07035749 -0.12952371
000070 d9 6b 23 be 63 9e a0 be 22 23 52 bf 01 85 a6 bd
       -0.1595911 -0.3137084 -0.8208486 -0.08130837
000080 48 45 06 3f 29 c4 58 3f fc ba 62 3e 0b 47 28 be
       0.52449465 0.84674317 0.22141641 -0.1643335
000090 20 59 9a 3e 93 94 75 bd 09 c5 0e 3e d3 d4 88 be
       0.30146122 -0.059956145 0.1394235 -0.26724872
0000a0 78 d1 ff be 75 33 0a 3e 98 84 69 bd 25 04 36 be
       -0.499645 0.13496192 -0.057011217 -0.17775019
0000b0 d2 04 a7 be f4 89 dc be 0d 1d 0b bf 9c b0 d0 3d
       -0.32620865 -0.43074 -0.543412 0.101899356
0000c0 75 e4 4b 3f fd 9b 16 3f 0a 3c f9 be 54 67 d0 3c
       0.7964547 0.5883177 -0.4867862 0.025439896
0000d0 0a 27 ab 3e 4b a3 23 bf 43 1b c2 3c 34 f3 04 3e
       0.33428222 -0.6392104 0.02369464 0.129834
0000e0 ef d5 d3 3e 95 9d bc bd 9d 2d 86 be aa 34 ab 3d
       0.41374156 -0.09209744 -0.26206675 0.08359654

enc_b f4 [2, 2]
000000 e4 a2 dc 3d c5 82 e4 be 7f 6a 17 be 92 54 6a be
       0.107732564 -0.4463102 -0.14786719 -0.22883824

edge_phase f4 [2]
000000 32 a1 42 bd fa 53 83 be
       -0.04751701 -0.25650007

pre_theta f4 [2]
000000 05 47 29 be a0 f6 5b be
       -0.16530998 -0.21480799

pre_psi f4 [2]
000000 55 56 de bd 51 99 a9 bd
       -0.1085631 -0.08281196

post_theta f4 [2]
000000 6d 73 73 be 48 e9 35 be
       -0.237745 -0.17764771

post_psi f4 [2]
000000 15 9d cb 3d ab c3 44 3e
       0.099420704 0.19215266

readout.weight f4 [3, 16]
000000 f0 69 aa bf 5d 84 81 3f a5 d5 d5 bd 79 6a 64 bf
       -1.331358 1.0118519 -0.1044114 -0.89224964
000010 49 81 cd bf 4e 92 87 bf 3a ca 1e be c5 ac bb 3c
       -1.605508 -1.0591524 -0.15506831 0.022909531
000020 b5 52 8c 3e 37 fd b3 3e e9 7f 94 3e e7 5c 9f 3e
       0.2740685 0.35154125 0.29003838 0.31125566
000030 11 ef 68 3d 1c 6d d9 bd 16 66 2e 3f a5 cb 02 be
       0.056868616 -0.10616514 0.6812452 -0.12772997
000040 b6 47 ec 3e 8f 2d 8a 3f 1e ae ec ba b1 ef 3a 3f
       0.4614846 1.0795153 -0.0018057262 0.7302199
000050 0f 17 b8 3f 28 26 5b 3f b2 64 46 3d a3 5f 31 3c
       1.4382037 0.85605097 0.048435874 0.010826024
000060 ce 04 d8 be ca 21 85 be 51 a9 23 bf 74 90 43 bf
       -0.42191166 -0.26002342 -0.6393023 -0.7639229
000070 e1 b7 ed bd 3f b4 4f 3e c6 62 27 bf 52 67 9b bf
       -0.11607338 0.20283602 -0.6538509 -1.2140906
000080 01 4d 3f 3f 28 36 e0 bf b6 05 92 3e 5f 17 b0 3e
       0.74726874 -1.7516527 0.28519982 0.3439283
000090 f8 b7 cd 3e f4 9e 84 bf cd 1f 18 bc f5 24 73 3e
       0.4017942 -1.0361009 -0.009284926 0.23744567
0000a0 36 42 e9 3e 9b fe 32 3f c8 1b 87 3e 15 24 a2 3d
       0.45558327 0.6991975 0.26388383 0.07917038
0000b0 ff e8 da 3c c3 bf 02 bf 96 b4 3e be 12 60 32 3f
       0.02672243 -0.51073855 -0.18623576 0.6967784

readout.bias f4 [3]
000000 25 97 af 3e cd b3 e8 bd cc 8b 9f 3e
       0.34295002 -0.11362419 0.31161344
