cora_multi_exp/models/eduqgc_N25_F10_seed42.pt (torch, 4315 bytes, 9 tensors)

enc_W f4 [2, 2, 10]
000000 15 35 4a 3f 3a a4 c1 3e d5 73 9d be b0 11 46 be
       0.78987247 0.37820607 -0.30752435 -0.19342685
000010 a9 5d 01 3e c3 0d cc 3e 13 f2 9e be 01 d8 9f be
       0.12633385 0.3985425 -0.31044063 -0.31219485
000020 92 5f e4 bd a5 45 9f be 77 1b 5b bf 0b c6 95 3e
       -0.11151041 -0.31107822 -0.85588783 0.29252657
000030 2e 28 17 bd 7e b3 b8 bd e3 ea cc be 9e 7e 4f 3f
       -0.036903553 -0.090186104 -0.40022954 0.8105258
000040 c3 7e 45 3e 5a 10 ba be af ab ec 3d 91 cc 5c 3e
       0.19286637 -0.363406 0.115561835 0.21562411
000050 b7 5d 7d 3f 43 42 21 3f 32 a7 91 be 86 34 59 be
       0.9897112 0.6299173 -0.28447872 -0.21211442
000060 59 d7 d6 be b8 f5 55 3f 79 a3 74 be 20 86 e6 be
       -0.41961172 0.8357806 -0.23890485 -0.45024204
000070 48 4f e0 3d a0 f3 a9 be b4 ec 84 bf 90 e7 8e 3d
       0.10952622 -0.33193684 -1.0384736 0.06977761
000080 ea 56 f6 3d f5 24 95 3e 33 27 c6 be 7b 34 86 3e
       0.12028296 0.29129758 -0.38701782 0.26211914
000090 e2 33 ce 3e 1e b3 81 3e 6c 7d 66 3e 0c c5 90 3e
       0.40273958 0.25331968 0.22508782 0.28275335

enc_b f4 [2, 2]
000000 29 e1 80 be 9f 6f 8d 3e 90 ad 43 be c7 ef 7f 3e
       -0.25171784 0.27624223 -0.19109178 0.24993812

edge_phase f4 [2]
000000 95 ca c8 bc e4 2a 51 3e
       -0.024510661 0.20426518

pre_theta f4 [2]
000000 c7 20 c8 be 80 70 61 bd
       -0.39087507 -0.05503893

pre_psi f4 [2]
000000 3c 45 eb 3c fc 3a 69 be
       0.028719537 -0.22776407

post_theta f4 [2]
000000 4e ec 5b be 45 ba 62 bd
       -0.21476862 -0.05535342

post_psi f4 [2]
000000 e4 77 02 bf 26 c4 50 be
       -0.5096419 -0.20387325

readout.weight f4 [3, 11]
000000 38 99 73 3f b0 97 52 3f 45 c4 87 bc 10 25 9c bf
       0.9515567 0.82262707 -0.01657308 -1.219881
000010 b4 32 d6 bf b9 e2 96 bf 55 ee c0 3e 36 6d c0 3c
       -1.6734223 -1.178794 0.37681833 0.023489576
000020 2d 93 91 3e db 7c 4b be 22 77 83 3e 93 2f 89 3e
       0.284326 -0.19871847 0.2567683 0.2679411
000030 42 d5 85 3f 5a 67 14 be 2b 2a 47 3f ba 18 bd 3f
       1.0455706 -0.1449255 0.7779872 1.4773171
000040 17 5e 99 3f 1a ff 68 be cf b3 c3 3c d5 e9 b1 be
       1.1981839 -0.22753564 0.02388945 -0.34748712
000050 ac 06 8a be 6c 37 23 bf 13 cc 85 bf 1d 87 9f bf
       -0.26958215 -0.6375644 -1.0452904 -1.2463108
000060 c8 2d 81 3b 43 55 51 3e 7a c2 df 3e fa 14 64 bf
       0.003942225 0.20442681 0.4370306 -0.8909451
000070 90 89 32 bd 98 a8 c8 3e a8 bf 85 3e 5b 5f ce bd
       -0.04358822 0.39191127 0.26122785 -0.10076781
000080 71 d4 cf 3e
       0.40591767

readout.bias f4 [3]
000000 03 4c f0 3d 5c 33 a0 bd f7 66 ba 3e
       0.11733248 -0.07822296 0.3640668
