outputs/eduqgc_model_seed42_20250819-204748.pt (torch, 4397 bytes, 9 tensors)

enc_W f4 [2, 2, 3]
00000000: e9c9 c53d 7cd0 da3c 28ed 963f 2400 8d3a
00000010: daf7 bdbd 0dd5 9b3f 0e12 253e b148 b3bd
00000020: f3f3 903f 4f85 cc3d 0504 8a3d c8e6 ae3f
0.09657652 0.026710741 1.1791124 0.0010757488 -0.092757896 1.2174393 0.16120169 -0.08754099
1.1324447 0.09986364 0.06739048 1.3664179

enc_b f4 [2, 2]
00000000: f27d ea3a 0771 1abf 4125 22be e8a0 ecbe
0.0017890318 -0.60328716 -0.15834524 -0.46216512

edge_phase f4 [2]
00000000: 5922 a3bd 3375 47be
-0.07965536 -0.19478302

pre_theta f4 [2]
00000000: 1d05 52be 4ec5 a9be
-0.20509763 -0.33158344

pre_psi f4 [2]
00000000: 90d8 01be 8e5b 20be
-0.12680268 -0.15659925

post_theta f4 [2]
00000000: d6bd 28be 8bcd 4bbe
-0.16478667 -0.19902627

post_psi f4 [2]
00000000: 6e3b 6b3e aa51 483e
0.2297189 0.19562402

readout.weight f4 [2, 4]
00000000: fe50 d0bf 9fd7 a33e f3bc a53d 6443 58bf
00000010: b677 b33f 950c a73d 36a6 e83e 3c56 323f
-1.6274717 0.32000443 0.0809268 -0.8447783 1.4020908 0.08156697 0.4543931 0.69662833

readout.bias f4 [2]
00000000: 686a 07be ccce 35be
-0.13224185 -0.17754668
