outputs/eduqgc_model_cora_seed42_20250819-214903.pt (torch, 4728 bytes, 9 tensors)

enc_W f4 [2, 2, 10]
0.8986203 -0.00420902 -0.9583392 -2.3826215 -0.7222718 -0.17184445 -0.03316205 -0.53310084
-0.40005666 0.3507024 0.24707165 -0.0036414769 0.2928721 -0.8585647 -1.0115789 1.4311427
1.6567535 -0.9987982 -1.6145635 0.6267465 0.59870607 -0.244642 -0.8090059 -0.7338053
-1.4595876 -2.0748785 -0.17761716 -0.7292535 0.31932878 -0.27475634 -1.239867 -0.51945466
0.1364787 0.35859966 -0.3282458 0.44262725 0.04384468 0.013222031 -0.8173375 -0.5588613
00000000: fb0b 663f d2eb 89bb b855 75bf df7c 18c0
00000010: cee6 38bf fef7 2fbe eed4 07bd 4c79 08bf
00000020: 3ad4 ccbe 448f b33e 5a00 7d3e d8a5 6ebb
00000030: 55f3 953e e5ca 5bbf 6b7b 81bf af2f b73f
00000040: 8010 d43f 3db1 7fbf 04aa cebf 7572 203f
00000050: cd44 193f 6f83 7abe 031b 4fbf aada 3bbf
00000060: c4d3 babf cfca 04c0 46e1 35be 5bb0 3abf
00000070: 107f a33e ddac 8cbe f6b3 9ebf fbfa 04bf
00000080: 13c1 0b3e 609a b73e d50f a8be 0aa0 e23e
00000090: 7b96 333d 38a1 583c 083d 51bf 8911 0fbf

enc_b f4 [2, 2]
-0.36428383 0.860137 -0.36638898 0.8326817
00000000: 6983 babe f031 5c3f 5697 bbbe a12a 553f

edge_phase f4 [2]
0.08287835 0.06603078
00000000: 20bc a93d 253b 873d

pre_theta f4 [2]
-0.5811792 -0.3552931
00000000: 29c8 14bf fae8 b5be

pre_psi f4 [2]
-0.07368327 0.2934213
00000000: 41e7 96bd 513b 963e

post_theta f4 [2]
-0.39718086 -0.0071629384
00000000: 4a5b cbbe 15b7 eabb

post_psi f4 [2]
-0.4139803 -0.24073878
00000000: 3af5 d3be 3a84 76be

readout.weight f4 [3, 11]
1.7686819 1.3895401 0.4514004 -1.9209182 -2.7619884 -1.6362371 -0.25665316 0.04088486
0.3750854 -0.0009680536 -0.04488282 -1.505821 1.9110705 -0.64876056 1.3307408 1.9222894
1.9868912 0.15851614 -0.8582873 -0.57293254 -0.57498544 -0.7776495 -0.86188245 -2.9957047
-0.13989443 0.7182069 0.9149455 -1.7163393 0.24360625 0.6126915 0.066662915 0.6228786
0.6107997
00000000: 2b64 e23f 73dc b13f f41d e73e a6e0 f5bf
00000010: 6bc4 30c0 3870 d1bf 0b68 83be e276 273d
00000020: 320b c03e fac4 7dba 0cd7 37bd bebe c0bf
00000030: f59d f43f 2c15 26bf b755 aa3f 940d f63f
00000040: 7352 fe3f 0e52 223e b7b8 5bbf b5ab 12bf
00000050: 3f32 13bf 0a14 47bf 54a4 5cbf a0b9 3fc0
00000060: 7c40 0fbe 68dc 373f de39 6a3f 02b1 dbbf
00000070: eb73 793e 5ad9 1c3f 9186 883d f974 1f3f
00000080: 5e5d 1c3f

readout.bias f4 [3]
-0.565234 -0.3666307 0.29637352
00000000: 2db3 10bf 05b7 bbbe 45be 973e
