outputs/eduqgc_model_seed42_20250819-011949.pt (torch, 4397 bytes, 9 tensors)

enc_W f4 [2, 2, 3]
0.1335819 0.028321471 1.0695565 0.13597232 0.05079168 1.581529 0.29642057 -0.11783083
1.0407277 0.14872631 0.123511724 1.4042302
00000000: b2c9 083e 6e02 e83c 3ae7 883f 543c 0b3e
00000010: f00a 503d 8b6f ca3f 70c4 973e 4a51 f1bd
00000020: 9136 853f b64b 183e b7f3 fc3d d1bd b33f

enc_b f4 [2, 2]
-0.05454853 -0.7914039 -0.068106726 -0.5845513
00000000: 486e 5fbd 7299 4abf 8a7b 8bbd 27a5 15bf

edge_phase f4 [2]
-0.06889545 -0.34355357
00000000: 0f19 8dbd 41e6 afbe

pre_theta f4 [2]
-0.3359368 -0.05905991
00000000: e9ff abbe cee8 71bd

pre_psi f4 [2]
0.068404116 0.14979193
00000000: 7517 8c3d 0e63 193e

post_theta f4 [2]
-0.07454827 -0.14923187
00000000: c3ac 98bd 3dd0 18be

post_psi f4 [2]
0.38590628 0.60652065
00000000: 8295 c53e f044 1b3f

readout.weight f4 [2, 4]
-2.7304509 0.13250549 0.116147734 -1.5038422 2.5050695 0.26906583 0.419172 1.3556925
00000000: b5bf 2ec0 85af 073e ddde ed3d e77d c0bf
00000010: 0f53 2040 ffc2 893e b69d d63e 5587 ad3f

readout.bias f4 [2]
-0.13570748 -0.17408143
00000000: e7f6 0abe 6742 32be
